…
g infrastructure for scoring\n","# and the score will be returned to you.\n","if __name__ == '__main__':\n","    model = solution_model()\n","    model.save(\"mymodel.h5\")\n"],"execution_count":12,"outputs":[{"output_type":"stream","text":["Found 2520 images belonging to 3 classes.\n","Found 372 images belonging to 3 classes.\n","Model: \"sequential_7\"\n","_________________________________________________________________\n","Layer (type)                 Output Shape              Param #   \n","=================================================================\n","conv2d_28 (Conv2D)           (None, 148, 148, 64)      1792      \n","_________________________________________________________________\n","max_pooling2d_28 (MaxPooling (None, 74, 74, 64)        0         \n","_________________________________________________________________\n","conv2d_29 (Conv2D)           (None, 72, 72, 64)        36928     \n","_________________________________________________________________\n","max_pooling2d_29 (MaxPooling (None, 36, 36, 64)        0         \n","_________________________________________________________________\n","conv2d_30 (Conv2D)           (None, 34, 34, 128)       73856     \n","_________________________________________________________________\n","max_pooling2d_30 (MaxPooling (None, 17, 17, 128)       0         \n","_________________________________________________________________\n","conv2d_31 (Conv2D)           (None, 15, 15, 128)       147584    \n","_________________________________________________________________\n","max_pooling2d_31 (MaxPooling (None, 7, 7, 128)         0         \n","_________________________________________________________________\n","flatten_7 (Flatten)          (None, 6272)              0         \n","_________________________________________________________________\n","dropout_7 (Dropout)          (None, 6272)              0         \n","_________________________________________________________________\n","dense_14 (Dense)             (None, 512)               3211776   \n","_________________________________________________________________\n","dense_15 (Dense)             (None, 3)                 1539      \n","=================================================================\n","Total params: 3,473,475\n","Trainable params: 3,473,475\n","Non-trainable params: 0\n","_________________________________________________________________\n","Epoch 1/25\n","79/79 [==============================] - 169s 2s/step - loss: 1.5137 - accuracy: 0.3437 - val_loss: 1.0893 - val_accuracy: 0.3360\n","Epoch 2/25\n
…
