…
ting infrastructure for scoring\n","# and the score will be returned to you.\n","if __name__ == '__main__':\n","    model = solution_model()\n","    model.save(\"mymodel.h5\")\n"],"execution_count":2,"outputs":[{"output_type":"stream","text":["Found 2520 images belonging to 3 classes.\n","Found 372 images belonging to 3 classes.\n","Model: \"sequential\"\n","_________________________________________________________________\n","Layer (type)                 Output Shape              Param #   \n","=================================================================\n","conv2d (Conv2D)              (None, 148, 148, 64)      1792      \n","_________________________________________________________________\n","max_pooling2d (MaxPooling2D) (None, 74, 74, 64)        0         \n","_________________________________________________________________\n","conv2d_1 (Conv2D)            (None, 72, 72, 64)        36928     \n","_________________________________________________________________\n","max_pooling2d_1 (MaxPooling2 (None, 36, 36, 64)        0         \n","_________________________________________________________________\n","conv2d_2 (Conv2D)            (None, 34, 34, 128)       73856     \n","_________________________________________________________________\n","max_pooling2d_2 (MaxPooling2 (None, 17, 17, 128)       0         \n","_________________________________________________________________\n","conv2d_3 (Conv2D)            (None, 15, 15, 128)       147584    \n","_________________________________________________________________\n","max_pooling2d_3 (MaxPooling2 (None, 7, 7, 128)         0         \n","_________________________________________________________________\n","flatten (Flatten)            (None, 6272)              0         \n","_________________________________________________________________\n","dropout (Dropout)            (None, 6272)              0         \n","_________________________________________________________________\n","dense (Dense)                (None, 512)               3211776   \n","_________________________________________________________________\n","dense_1 (Dense)              (None, 3)                 1539      \n","=================================================================\n","Total params: 3,473,475\n","Trainable params: 3,473,475\n","Non-trainable params: 0\n","_________________________________________________________________\n","Epoch 1/5\n","79/79 [==============================] - 171s 2s/step - loss: 1.3876 - accuracy: 0.3782 - val_loss: 1.0559 - val_accuracy: 0.4785\n","Epoch 2/5\n",
…
